64
train size: 1202
test size: 404
[-0.7238466  -0.01983619  1.53904999 -1.55488387 -0.19532506 -1.41822971
 -1.29141456  1.30542993 -1.55901314 -1.30479506]
1
before training
after training
XXMULT(
  (emb): Linear(in_features=12, out_features=16, bias=True)
  (dnn): ModuleList(
    (0): Linear(in_features=83, out_features=64, bias=True)
    (1): Linear(in_features=83, out_features=64, bias=True)
    (2): Linear(in_features=83, out_features=64, bias=True)
    (3): Linear(in_features=147, out_features=64, bias=True)
    (4): Linear(in_features=83, out_features=64, bias=True)
    (5): Linear(in_features=83, out_features=64, bias=True)
    (6): Linear(in_features=147, out_features=64, bias=True)
    (7): Linear(in_features=19, out_features=64, bias=True)
    (8): Linear(in_features=19, out_features=64, bias=True)
    (9): Linear(in_features=83, out_features=64, bias=True)
    (10): Linear(in_features=19, out_features=64, bias=True)
    (11): Linear(in_features=19, out_features=64, bias=True)
  )
  (fc1): Linear(in_features=64, out_features=64, bias=True)
  (fc2): Linear(in_features=64, out_features=10, bias=True)
)
loaded
igs:
[11.359002113342285, 8.361108779907227, 13.87437629699707, 8.309911727905273, 8.45799446105957, 5.771429538726807, 13.871047019958496, 8.222323417663574, 5.691421031951904, 16.41960906982422, 0, 0, 10.784863471984863, 0, 6.794903755187988, 3.7617716789245605, 13.217418670654297, 0, 0, 9.447944641113281, 0, 0, 0, 0, 18.629150390625, 11.00469970703125, 0, 0, 0, 7.363832950592041, 9.780466079711914, 13.467123985290527, 12.058774948120117, 0, 0, 0, 0, 0, 0, 0, 0, 0, 0, 0, 0, 0, 0, 0, 0, 0, 0, 0, 0, 0, 0]
…
