train size: 668
test size: 223
[ 9.73479223 14.68693671 -5.23716441 -0.68317547 -0.1807337  -0.74149625
 -2.78108404  3.18298059 -1.45110767 -3.19411609]
1
before training
after training
XXMULT(
  (emb): Linear(in_features=9, out_features=64, bias=True)
  (dnn): ModuleList(
    (0): Linear(in_features=195, out_features=64, bias=True)
    (1): Linear(in_features=131, out_features=64, bias=True)
    (2): Linear(in_features=67, out_features=64, bias=True)
    (3): Linear(in_features=131, out_features=64, bias=True)
    (4): Linear(in_features=131, out_features=64, bias=True)
    (5): Linear(in_features=67, out_features=64, bias=True)
    (6): Linear(in_features=67, out_features=64, bias=True)
    (7): Linear(in_features=67, out_features=64, bias=True)
    (8): Linear(in_features=131, out_features=64, bias=True)
  )
  (fc1): Linear(in_features=64, out_features=64, bias=True)
  (fc2): Linear(in_features=64, out_features=10, bias=True)
)
loaded
igs:
[0, … 0, 0, 0, 0, 0, 0, 0, 0, 0]
[[[… # 1
UPDATE CUSTOMER   SET C_BALANCE = $1,        C_YTD_PAYMENT = $2,        C_PAYMENT_CNT = $3,        C_DATA = $4  WHERE C_W_ID = $5    AND C_D_ID = $6    AND C_ID = $7
* 1
! 1 13.222418785095215
{'Node Type': 'ModifyTable', 'Relation Name': 'customer', 'Startup Cost': 0.43, 'Total Cost': 8.45}
! 0 12.516167640686035
…
