train size: 668
test size: 223
[ 9.73479223 14.68693671 -5.23716441 -0.68317547 -0.1807337  -0.74149625
 -2.78108404  3.18298059 -1.45110767 -3.19411609]
1
before training
after training
XXMULT(
  (trans): Transformer(
    (encoder): TransformerEncoder(
      (layers): ModuleList(
        (0): TransformerEncoderLayer(
          (self_attn): MultiheadAttention(
            (out_proj): NonDynamicallyQuantizableLinear(in_features=12, out_features=12, bias=True)
          )
          (linear1): Linear(in_features=12, out_features=2048, bias=True)
          (dropout): Dropout(p=0.1, inplace=False)
          (linear2): Linear(in_features=2048, out_features=12, bias=True)
          (norm1): LayerNorm((12,), eps=1e-05, elementwise_affine=True)
          (norm2): LayerNorm((12,), eps=1e-05, elementwise_affine=True)
          (dropout1): Dropout(p=0.1, inplace=False)
          (dropout2): Dropout(p=0.1, inplace=False)
        )
        (1): TransformerEncoderLayer(
          (self_attn): MultiheadAttention(
            (out_proj): NonDynamicallyQuantizableLinear(in_features=12, out_features=12, bias=True)
          )
          (linear1): Linear(in_features=12, out_features=2048, bias=True)
          (dropout): Dropout(p=0.1, inplace=False)
          (linear2): Linear(in_features=2048, out_features=12, bias=True)
          (norm1): LayerNorm((12,), eps=1e-05, elementwise_affine=True)
          (norm2): LayerNorm((12,), eps=1e-05, elementwise_affine=True)
          (dropout1): Dropout(p=0.1, inplace=False)
          (dropout2): Dropout(p=0.1, inplace=False)
        )
        (2): TransformerEncoderLayer(
          (self_attn): MultiheadAttention(
            (out_proj): NonDynamicallyQuantizableLinear(in_features=12, out_features=12, bias=True)
          )
          (linear1): Linear(in_features=12, out_features=2048, bias=True)
          (dropout): Dropout(p=0.1, inplace=False)
          (linear2): Linear(in_features=2048, out_features=12, bias=True)
          (norm1): LayerNorm((12,), eps=1e-05, elementwise_affine=True)
          (norm2): LayerNorm((12,), eps=1e-05, elementwise_affine=True)
          (dropout1): Dropout(p=0.1, inplace=False)
          (dropout2): Dropout(p=0.1, inplace=False)
        )
        (3): TransformerEncoderLayer(
          (self_attn): MultiheadAttention(
            (out_proj): NonDynamicallyQuantizableLinear(in_features=12, out_features=12, bias=True)
          )
          (linear1): Linear(in_features=12, out_features=2048, bias=True)
          (dropout): Dropout(p=0.1, inplace=False)
          (linear2): Linear(in_features=2048, out_features=12, bias=True)
          (norm1): LayerNorm((12,), eps=1e-05, elementwise_affine=True)
          (norm2): LayerNorm((12,), eps=1e-05, elementwise_affine=True)
          (dropout1): Dropout(p=0.1, inplace=False)
          (dropout2): Dropout(p=0.1, inplace=False)
        )
        (4): TransformerEncoderLayer(
          (self_attn): MultiheadAttention(
            (out_proj): NonDynamicallyQuantizableLinear(in_features=12, out_features=12, bias=True)
          )
          (linear1): Linear(in_features=12, out_features=2048, bias=True)
          (dropout): Dropout(p=0.1, inplace=False)
          (linear2): Linear(in_features=2048, out_features=12, bias=True)
          (norm1): LayerNorm((12,), eps=1e-05, elementwise_affine=True)
          (norm2): LayerNorm((12,), eps=1e-05, elementwise_affine=True)
          (dropout1): Dropout(p=0.1, inplace=False)
          (dropout2): Dropout(p=0.1, inplace=False)
        )
        (5): TransformerEncoderLayer(
          (self_attn): MultiheadAttention(
            (out_proj): NonDynamicallyQuantizableLinear(in_features=12, out_features=12, bias=True)
          )
          (linear1): Linear(in_features=12, out_features=2048, bias=True)
          (dropout): Dropout(p=0.1, inplace=False)
          (linear2): Linear(in_features=2048, out_features=12, bias=True)
          (norm1): LayerNorm((12,), eps=1e-05, elementwise_affine=True)
          (norm2): LayerNorm((12,), eps=1e-05, elementwise_affine=True)
          (dropout1): Dropout(p=0.1, inplace=False)
          (dropout2): Dropout(p=0.1, inplace=False)
        )
      )
      (norm): LayerNorm((12,), eps=1e-05, elementwise_affine=True)
    )
    (decoder): TransformerDecoder(
      (layers): ModuleList(
        (0): TransformerDecoderLayer(
          (self_attn): MultiheadAttention(
            (out_proj): NonDynamicallyQuantizableLinear(in_features=12, out_features=12, bias=True)
          )
          (multihead_attn): MultiheadAttention(
            (out_proj): NonDynamicallyQuantizableLinear(in_features=12, out_features=12, bias=True)
          )
          (linear1): Linear(in_features=12, out_features=2048, bias=True)
          (dropout): Dropout(p=0.1, inplace=False)
          (linear2): Linear(in_features=2048, out_features=12, bias=True)
          (norm1): LayerNorm((12,), eps=1e-05, elementwise_affine=True)
          (norm2): LayerNorm((12,), eps=1e-05, elementwise_affine=True)
          (norm3): LayerNorm((12,), eps=1e-05, elementwise_affine=True)
          (dropout1): Dropout(p=0.1, inplace=False)
          (dropout2): Dropout(p=0.1, inplace=False)
          (dropout3): Dropout(p=0.1, inplace=False)
        )
        (1): TransformerDecoderLayer(
          (self_attn): MultiheadAttention(
            (out_proj): NonDynamicallyQuantizableLinear(in_features=12, out_features=12, bias=True)
          )
          (multihead_attn): MultiheadAttention(
            (out_proj): NonDynamicallyQuantizableLinear(in_features=12, out_features=12, bias=True)
          )
          (linear1): Linear(in_features=12, out_features=2048, bias=True)
          (dropout): Dropout(p=0.1, inplace=False)
          (linear2): Linear(in_features=2048, out_features=12, bias=True)
          (norm1): LayerNorm((12,), eps=1e-05, elementwise_affine=True)
          (norm2): LayerNorm((12,), eps=1e-05, elementwise_affine=True)
          (norm3): LayerNorm((12,), eps=1e-05, elementwise_affine=True)
          (dropout1): Dropout(p=0.1, inplace=False)
          (dropout2): Dropout(p=0.1, inplace=False)
          (dropout3): Dropout(p=0.1, inplace=False)
        )
        (2): TransformerDecoderLayer(
          (self_attn): MultiheadAttention(
            (out_proj): NonDynamicallyQuantizableLinear(in_features=12, out_features=12, bias=True)
          )
          (multihead_attn): MultiheadAttention(
            (out_proj): NonDynamicallyQuantizableLinear(in_features=12, out_features=12, bias=True)
          )
          (linear1): Linear(in_features=12, out_features=2048, bias=True)
          (dropout): Dropout(p=0.1, inplace=False)
          (linear2): Linear(in_features=2048, out_features=12, bias=True)
          (norm1): LayerNorm((12,), eps=1e-05, elementwise_affine=True)
          (norm2): LayerNorm((12,), eps=1e-05, elementwise_affine=True)
          (norm3): LayerNorm((12,), eps=1e-05, elementwise_affine=True)
          (dropout1): Dropout(p=0.1, inplace=False)
          (dropout2): Dropout(p=0.1, inplace=False)
          (dropout3): Dropout(p=0.1, inplace=False)
        )
        (3): TransformerDecoderLayer(
          (self_attn): MultiheadAttention(
            (out_proj): NonDynamicallyQuantizableLinear(in_features=12, out_features=12, bias=True)
          )
          (multihead_attn): MultiheadAttention(
            (out_proj): NonDynamicallyQuantizableLinear(in_features=12, out_features=12, bias=True)
          )
          (linear1): Linear(in_features=12, out_features=2048, bias=True)
          (dropout): Dropout(p=0.1, inplace=False)
          (linear2): Linear(in_features=2048, out_features=12, bias=True)
          (norm1): LayerNorm((12,), eps=1e-05, elementwise_affine=True)
          (norm2): LayerNorm((12,), eps=1e-05, elementwise_affine=True)
          (norm3): LayerNorm((12,), eps=1e-05, elementwise_affine=True)
          (dropout1): Dropout(p=0.1, inplace=False)
          (dropout2): Dropout(p=0.1, inplace=False)
          (dropout3): Dropout(p=0.1, inplace=False)
        )
        (4): TransformerDecoderLayer(
          (self_attn): MultiheadAttention(
            (out_proj): NonDynamicallyQuantizableLinear(in_features=12, out_features=12, bias=True)
          )
          (multihead_attn): MultiheadAttention(
            (out_proj): NonDynamicallyQuantizableLinear(in_features=12, out_features=12, bias=True)
          )
          (linear1): Linear(in_features=12, out_features=2048, bias=True)
          (dropout): Dropout(p=0.1, inplace=False)
          (linear2): Linear(in_features=2048, out_features=12, bias=True)
          (norm1): LayerNorm((12,), eps=1e-05, elementwise_affine=True)
          (norm2): LayerNorm((12,), eps=1e-05, elementwise_affine=True)
          (norm3): LayerNorm((12,), eps=1e-05, elementwise_affine=True)
          (dropout1): Dropout(p=0.1, inplace=False)
          (dropout2): Dropout(p=0.1, inplace=False)
          (dropout3): Dropout(p=0.1, inplace=False)
        )
        (5): TransformerDecoderLayer(
          (self_attn): MultiheadAttention(
            (out_proj): NonDynamicallyQuantizableLinear(in_features=12, out_features=12, bias=True)
          )
          (multihead_attn): MultiheadAttention(
            (out_proj): NonDynamicallyQuantizableLinear(in_features=12, out_features=12, bias=True)
          )
          (linear1): Linear(in_features=12, out_features=2048, bias=True)
          (dropout): Dropout(p=0.1, inplace=False)
          (linear2): Linear(in_features=2048, out_features=12, bias=True)
          (norm1): LayerNorm((12,), eps=1e-05, elementwise_affine=True)
          (norm2): LayerNorm((12,), eps=1e-05, elementwise_affine=True)
          (norm3): LayerNorm((12,), eps=1e-05, elementwise_affine=True)
          (dropout1): Dropout(p=0.1, inplace=False)
          (dropout2): Dropout(p=0.1, inplace=False)
          (dropout3): Dropout(p=0.1, inplace=False)
        )
      )
      (norm): LayerNorm((12,), eps=1e-05, elementwise_affine=True)
    )
  )
  (transfc): Linear(in_features=48, out_features=64, bias=True)
  (fc1): Linear(in_features=64, out_features=64, bias=True)
  (fc2): Linear(in_features=64, out_features=10, bias=True)
)
loaded
======Top3 metric
total cpu usage_sys: 0.39011495298884025
dsk/total_read: 0.26545495960211574
total cpu usage_usr: 0.1259747719655154
igs:
[0, … 0, 0, 0, 0, 0, 0, 0, 0, 0]
Transformer(
  (encoder): TransformerEncoder(
    (layers): ModuleList(
      (0): TransformerEncoderLayer(
        (self_attn): MultiheadAttention(
          (out_proj): NonDynamicallyQuantizableLinear(in_features=12, out_features=12, bias=True)
        )
        (linear1): Linear(in_features=12, out_features=2048, bias=True)
        (dropout): Dropout(p=0.1, inplace=False)
        (linear2): Linear(in_features=2048, out_features=12, bias=True)
        (norm1): LayerNorm((12,), eps=1e-05, elementwise_affine=True)
        (norm2): LayerNorm((12,), eps=1e-05, elementwise_affine=True)
        (dropout1): Dropout(p=0.1, inplace=False)
        (dropout2): Dropout(p=0.1, inplace=False)
      )
      (1): TransformerEncoderLayer(
        (self_attn): MultiheadAttention(
          (out_proj): NonDynamicallyQuantizableLinear(in_features=12, out_features=12, bias=True)
        )
        (linear1): Linear(in_features=12, out_features=2048, bias=True)
        (dropout): Dropout(p=0.1, inplace=False)
        (linear2): Linear(in_features=2048, out_features=12, bias=True)
        (norm1): LayerNorm((12,), eps=1e-05, elementwise_affine=True)
        (norm2): LayerNorm((12,), eps=1e-05, elementwise_affine=True)
        (dropout1): Dropout(p=0.1, inplace=False)
        (dropout2): Dropout(p=0.1, inplace=False)
      )
      (2): TransformerEncoderLayer(
        (self_attn): MultiheadAttention(
          (out_proj): NonDynamicallyQuantizableLinear(in_features=12, out_features=12, bias=True)
        )
        (linear1): Linear(in_features=12, out_features=2048, bias=True)
        (dropout): Dropout(p=0.1, inplace=False)
        (linear2): Linear(in_features=2048, out_features=12, bias=True)
        (norm1): LayerNorm((12,), eps=1e-05, elementwise_affine=True)
        (norm2): LayerNorm((12,), eps=1e-05, elementwise_affine=True)
        (dropout1): Dropout(p=0.1, inplace=False)
        (dropout2): Dropout(p=0.1, inplace=False)
      )
      (3): TransformerEncoderLayer(
        (self_attn): MultiheadAttention(
          (out_proj): NonDynamicallyQuantizableLinear(in_features=12, out_features=12, bias=True)
        )
        (linear1): Linear(in_features=12, out_features=2048, bias=True)
        (dropout): Dropout(p=0.1, inplace=False)
        (linear2): Linear(in_features=2048, out_features=12, bias=True)
        (norm1): LayerNorm((12,), eps=1e-05, elementwise_affine=True)
        (norm2): LayerNorm((12,), eps=1e-05, elementwise_affine=True)
        (dropout1): Dropout(p=0.1, inplace=False)
        (dropout2): Dropout(p=0.1, inplace=False)
      )
      (4): TransformerEncoderLayer(
        (self_attn): MultiheadAttention(
          (out_proj): NonDynamicallyQuantizableLinear(in_features=12, out_features=12, bias=True)
        )
        (linear1): Linear(in_features=12, out_features=2048, bias=True)
        (dropout): Dropout(p=0.1, inplace=False)
        (linear2): Linear(in_features=2048, out_features=12, bias=True)
        (norm1): LayerNorm((12,), eps=1e-05, elementwise_affine=True)
        (norm2): LayerNorm((12,), eps=1e-05, elementwise_affine=True)
        (dropout1): Dropout(p=0.1, inplace=False)
        (dropout2): Dropout(p=0.1, inplace=False)
      )
      (5): TransformerEncoderLayer(
        (self_attn): MultiheadAttention(
          (out_proj): NonDynamicallyQuantizableLinear(in_features=12, out_features=12, bias=True)
        )
        (linear1): Linear(in_features=12, out_features=2048, bias=True)
        (dropout): Dropout(p=0.1, inplace=False)
        (linear2): Linear(in_features=2048, out_features=12, bias=True)
        (norm1): LayerNorm((12,), eps=1e-05, elementwise_affine=True)
        (norm2): LayerNorm((12,), eps=1e-05, elementwise_affine=True)
        (dropout1): Dropout(p=0.1, inplace=False)
        (dropout2): Dropout(p=0.1, inplace=False)
      )
    )
    (norm): LayerNorm((12,), eps=1e-05, elementwise_affine=True)
  )
  (decoder): TransformerDecoder(
    (layers): ModuleList(
      (0): TransformerDecoderLayer(
        (self_attn): MultiheadAttention(
          (out_proj): NonDynamicallyQuantizableLinear(in_features=12, out_features=12, bias=True)
        )
        (multihead_attn): MultiheadAttention(
          (out_proj): NonDynamicallyQuantizableLinear(in_features=12, out_features=12, bias=True)
        )
        (linear1): Linear(in_features=12, out_features=2048, bias=True)
        (dropout): Dropout(p=0.1, inplace=False)
        (linear2): Linear(in_features=2048, out_features=12, bias=True)
        (norm1): LayerNorm((12,), eps=1e-05, elementwise_affine=True)
        (norm2): LayerNorm((12,), eps=1e-05, elementwise_affine=True)
        (norm3): LayerNorm((12,), eps=1e-05, elementwise_affine=True)
        (dropout1): Dropout(p=0.1, inplace=False)
        (dropout2): Dropout(p=0.1, inplace=False)
        (dropout3): Dropout(p=0.1, inplace=False)
      )
      (1): TransformerDecoderLayer(
        (self_attn): MultiheadAttention(
          (out_proj): NonDynamicallyQuantizableLinear(in_features=12, out_features=12, bias=True)
        )
        (multihead_attn): MultiheadAttention(
          (out_proj): NonDynamicallyQuantizableLinear(in_features=12, out_features=12, bias=True)
        )
        (linear1): Linear(in_features=12, out_features=2048, bias=True)
        (dropout): Dropout(p=0.1, inplace=False)
        (linear2): Linear(in_features=2048, out_features=12, bias=True)
        (norm1): LayerNorm((12,), eps=1e-05, elementwise_affine=True)
        (norm2): LayerNorm((12,), eps=1e-05, elementwise_affine=True)
        (norm3): LayerNorm((12,), eps=1e-05, elementwise_affine=True)
        (dropout1): Dropout(p=0.1, inplace=False)
        (dropout2): Dropout(p=0.1, inplace=False)
        (dropout3): Dropout(p=0.1, inplace=False)
      )
      (2): TransformerDecoderLayer(
        (self_attn): MultiheadAttention(
          (out_proj): NonDynamicallyQuantizableLinear(in_features=12, out_features=12, bias=True)
        )
        (multihead_attn): MultiheadAttention(
          (out_proj): NonDynamicallyQuantizableLinear(in_features=12, out_features=12, bias=True)
        )
        (linear1): Linear(in_features=12, out_features=2048, bias=True)
        (dropout): Dropout(p=0.1, inplace=False)
        (linear2): Linear(in_features=2048, out_features=12, bias=True)
        (norm1): LayerNorm((12,), eps=1e-05, elementwise_affine=True)
        (norm2): LayerNorm((12,), eps=1e-05, elementwise_affine=True)
        (norm3): LayerNorm((12,), eps=1e-05, elementwise_affine=True)
        (dropout1): Dropout(p=0.1, inplace=False)
        (dropout2): Dropout(p=0.1, inplace=False)
        (dropout3): Dropout(p=0.1, inplace=False)
      )
      (3): TransformerDecoderLayer(
        (self_attn): MultiheadAttention(
          (out_proj): NonDynamicallyQuantizableLinear(in_features=12, out_features=12, bias=True)
        )
        (multihead_attn): MultiheadAttention(
          (out_proj): NonDynamicallyQuantizableLinear(in_features=12, out_features=12, bias=True)
        )
        (linear1): Linear(in_features=12, out_features=2048, bias=True)
        (dropout): Dropout(p=0.1, inplace=False)
        (linear2): Linear(in_features=2048, out_features=12, bias=True)
        (norm1): LayerNorm((12,), eps=1e-05, elementwise_affine=True)
        (norm2): LayerNorm((12,), eps=1e-05, elementwise_affine=True)
        (norm3): LayerNorm((12,), eps=1e-05, elementwise_affine=True)
        (dropout1): Dropout(p=0.1, inplace=False)
        (dropout2): Dropout(p=0.1, inplace=False)
        (dropout3): Dropout(p=0.1, inplace=False)
      )
      (4): TransformerDecoderLayer(
        (self_attn): MultiheadAttention(
          (out_proj): NonDynamicallyQuantizableLinear(in_features=12, out_features=12, bias=True)
        )
        (multihead_attn): MultiheadAttention(
          (out_proj): NonDynamicallyQuantizableLinear(in_features=12, out_features=12, bias=True)
        )
        (linear1): Linear(in_features=12, out_features=2048, bias=True)
        (dropout): Dropout(p=0.1, inplace=False)
        (linear2): Linear(in_features=2048, out_features=12, bias=True)
        (norm1): LayerNorm((12,), eps=1e-05, elementwise_affine=True)
        (norm2): LayerNorm((12,), eps=1e-05, elementwise_affine=True)
        (norm3): LayerNorm((12,), eps=1e-05, elementwise_affine=True)
        (dropout1): Dropout(p=0.1, inplace=False)
        (dropout2): Dropout(p=0.1, inplace=False)
        (dropout3): Dropout(p=0.1, inplace=False)
      )
      (5): TransformerDecoderLayer(
        (self_attn): MultiheadAttention(
          (out_proj): NonDynamicallyQuantizableLinear(in_features=12, out_features=12, bias=True)
        )
        (multihead_attn): MultiheadAttention(
          (out_proj): NonDynamicallyQuantizableLinear(in_features=12, out_features=12, bias=True)
        )
        (linear1): Linear(in_features=12, out_features=2048, bias=True)
        (dropout): Dropout(p=0.1, inplace=False)
        (linear2): Linear(in_features=2048, out_features=12, bias=True)
        (norm1): LayerNorm((12,), eps=1e-05, elementwise_affine=True)
        (norm2): LayerNorm((12,), eps=1e-05, elementwise_affine=True)
        (norm3): LayerNorm((12,), eps=1e-05, elementwise_affine=True)
        (dropout1): Dropout(p=0.1, inplace=False)
        (dropout2): Dropout(p=0.1, inplace=False)
        (dropout3): Dropout(p=0.1, inplace=False)
      )
    )
    (norm): LayerNorm((12,), eps=1e-05, elementwise_affine=True)
  )
)
Transformer(
  (encoder): TransformerEncoder(
    (layers): ModuleList(
      (0): TransformerEncoderLayer(
        (self_attn): MultiheadAttention(
          (out_proj): NonDynamicallyQuantizableLinear(in_features=12, out_features=12, bias=True)
        )
        (linear1): Linear(in_features=12, out_features=2048, bias=True)
        (dropout): Dropout(p=0.1, inplace=False)
        (linear2): Linear(in_features=2048, out_features=12, bias=True)
        (norm1): LayerNorm((12,), eps=1e-05, elementwise_affine=True)
        (norm2): LayerNorm((12,), eps=1e-05, elementwise_affine=True)
        (dropout1): Dropout(p=0.1, inplace=False)
        (dropout2): Dropout(p=0.1, inplace=False)
      )
      (1): TransformerEncoderLayer(
        (self_attn): MultiheadAttention(
          (out_proj): NonDynamicallyQuantizableLinear(in_features=12, out_features=12, bias=True)
        )
        (linear1): Linear(in_features=12, out_features=2048, bias=True)
        (dropout): Dropout(p=0.1, inplace=False)
        (linear2): Linear(in_features=2048, out_features=12, bias=True)
        (norm1): LayerNorm((12,), eps=1e-05, elementwise_affine=True)
        (norm2): LayerNorm((12,), eps=1e-05, elementwise_affine=True)
        (dropout1): Dropout(p=0.1, inplace=False)
        (dropout2): Dropout(p=0.1, inplace=False)
      )
      (2): TransformerEncoderLayer(
        (self_attn): MultiheadAttention(
          (out_proj): NonDynamicallyQuantizableLinear(in_features=12, out_features=12, bias=True)
        )
        (linear1): Linear(in_features=12, out_features=2048, bias=True)
        (dropout): Dropout(p=0.1, inplace=False)
        (linear2): Linear(in_features=2048, out_features=12, bias=True)
        (norm1): LayerNorm((12,), eps=1e-05, elementwise_affine=True)
        (norm2): LayerNorm((12,), eps=1e-05, elementwise_affine=True)
        (dropout1): Dropout(p=0.1, inplace=False)
        (dropout2): Dropout(p=0.1, inplace=False)
      )
      (3): TransformerEncoderLayer(
        (self_attn): MultiheadAttention(
          (out_proj): NonDynamicallyQuantizableLinear(in_features=12, out_features=12, bias=True)
        )
        (linear1): Linear(in_features=12, out_features=2048, bias=True)
        (dropout): Dropout(p=0.1, inplace=False)
        (linear2): Linear(in_features=2048, out_features=12, bias=True)
        (norm1): LayerNorm((12,), eps=1e-05, elementwise_affine=True)
        (norm2): LayerNorm((12,), eps=1e-05, elementwise_affine=True)
        (dropout1): Dropout(p=0.1, inplace=False)
        (dropout2): Dropout(p=0.1, inplace=False)
      )
      (4): TransformerEncoderLayer(
        (self_attn): MultiheadAttention(
          (out_proj): NonDynamicallyQuantizableLinear(in_features=12, out_features=12, bias=True)
        )
        (linear1): Linear(in_features=12, out_features=2048, bias=True)
        (dropout): Dropout(p=0.1, inplace=False)
        (linear2): Linear(in_features=2048, out_features=12, bias=True)
        (norm1): LayerNorm((12,), eps=1e-05, elementwise_affine=True)
        (norm2): LayerNorm((12,), eps=1e-05, elementwise_affine=True)
        (dropout1): Dropout(p=0.1, inplace=False)
        (dropout2): Dropout(p=0.1, inplace=False)
      )
      (5): TransformerEncoderLayer(
        (self_attn): MultiheadAttention(
          (out_proj): NonDynamicallyQuantizableLinear(in_features=12, out_features=12, bias=True)
        )
        (linear1): Linear(in_features=12, out_features=2048, bias=True)
        (dropout): Dropout(p=0.1, inplace=False)
        (linear2): Linear(in_features=2048, out_features=12, bias=True)
        (norm1): LayerNorm((12,), eps=1e-05, elementwise_affine=True)
        (norm2): LayerNorm((12,), eps=1e-05, elementwise_affine=True)
        (dropout1): Dropout(p=0.1, inplace=False)
        (dropout2): Dropout(p=0.1, inplace=False)
      )
    )
    (norm): LayerNorm((12,), eps=1e-05, elementwise_affine=True)
  )
  (decoder): TransformerDecoder(
    (layers): ModuleList(
      (0): TransformerDecoderLayer(
        (self_attn): MultiheadAttention(
          (out_proj): NonDynamicallyQuantizableLinear(in_features=12, out_features=12, bias=True)
        )
        (multihead_attn): MultiheadAttention(
          (out_proj): NonDynamicallyQuantizableLinear(in_features=12, out_features=12, bias=True)
        )
        (linear1): Linear(in_features=12, out_features=2048, bias=True)
        (dropout): Dropout(p=0.1, inplace=False)
        (linear2): Linear(in_features=2048, out_features=12, bias=True)
        (norm1): LayerNorm((12,), eps=1e-05, elementwise_affine=True)
        (norm2): LayerNorm((12,), eps=1e-05, elementwise_affine=True)
        (norm3): LayerNorm((12,), eps=1e-05, elementwise_affine=True)
        (dropout1): Dropout(p=0.1, inplace=False)
        (dropout2): Dropout(p=0.1, inplace=False)
        (dropout3): Dropout(p=0.1, inplace=False)
      )
      (1): TransformerDecoderLayer(
        (self_attn): MultiheadAttention(
          (out_proj): NonDynamicallyQuantizableLinear(in_features=12, out_features=12, bias=True)
        )
        (multihead_attn): MultiheadAttention(
          (out_proj): NonDynamicallyQuantizableLinear(in_features=12, out_features=12, bias=True)
        )
        (linear1): Linear(in_features=12, out_features=2048, bias=True)
        (dropout): Dropout(p=0.1, inplace=False)
        (linear2): Linear(in_features=2048, out_features=12, bias=True)
        (norm1): LayerNorm((12,), eps=1e-05, elementwise_affine=True)
        (norm2): LayerNorm((12,), eps=1e-05, elementwise_affine=True)
        (norm3): LayerNorm((12,), eps=1e-05, elementwise_affine=True)
        (dropout1): Dropout(p=0.1, inplace=False)
        (dropout2): Dropout(p=0.1, inplace=False)
        (dropout3): Dropout(p=0.1, inplace=False)
      )
      (2): TransformerDecoderLayer(
        (self_attn): MultiheadAttention(
          (out_proj): NonDynamicallyQuantizableLinear(in_features=12, out_features=12, bias=True)
        )
        (multihead_attn): MultiheadAttention(
          (out_proj): NonDynamicallyQuantizableLinear(in_features=12, out_features=12, bias=True)
        )
        (linear1): Linear(in_features=12, out_features=2048, bias=True)
        (dropout): Dropout(p=0.1, inplace=False)
        (linear2): Linear(in_features=2048, out_features=12, bias=True)
        (norm1): LayerNorm((12,), eps=1e-05, elementwise_affine=True)
        (norm2): LayerNorm((12,), eps=1e-05, elementwise_affine=True)
        (norm3): LayerNorm((12,), eps=1e-05, elementwise_affine=True)
        (dropout1): Dropout(p=0.1, inplace=False)
        (dropout2): Dropout(p=0.1, inplace=False)
        (dropout3): Dropout(p=0.1, inplace=False)
      )
      (3): TransformerDecoderLayer(
        (self_attn): MultiheadAttention(
          (out_proj): NonDynamicallyQuantizableLinear(in_features=12, out_features=12, bias=True)
        )
        (multihead_attn): MultiheadAttention(
          (out_proj): NonDynamicallyQuantizableLinear(in_features=12, out_features=12, bias=True)
        )
        (linear1): Linear(in_features=12, out_features=2048, bias=True)
        (dropout): Dropout(p=0.1, inplace=False)
        (linear2): Linear(in_features=2048, out_features=12, bias=True)
        (norm1): LayerNorm((12,), eps=1e-05, elementwise_affine=True)
        (norm2): LayerNorm((12,), eps=1e-05, elementwise_affine=True)
        (norm3): LayerNorm((12,), eps=1e-05, elementwise_affine=True)
        (dropout1): Dropout(p=0.1, inplace=False)
        (dropout2): Dropout(p=0.1, inplace=False)
        (dropout3): Dropout(p=0.1, inplace=False)
      )
      (4): TransformerDecoderLayer(
        (self_attn): MultiheadAttention(
          (out_proj): NonDynamicallyQuantizableLinear(in_features=12, out_features=12, bias=True)
        )
        (multihead_attn): MultiheadAttention(
          (out_proj): NonDynamicallyQuantizableLinear(in_features=12, out_features=12, bias=True)
        )
        (linear1): Linear(in_features=12, out_features=2048, bias=True)
        (dropout): Dropout(p=0.1, inplace=False)
        (linear2): Linear(in_features=2048, out_features=12, bias=True)
        (norm1): LayerNorm((12,), eps=1e-05, elementwise_affine=True)
        (norm2): LayerNorm((12,), eps=1e-05, elementwise_affine=True)
        (norm3): LayerNorm((12,), eps=1e-05, elementwise_affine=True)
        (dropout1): Dropout(p=0.1, inplace=False)
        (dropout2): Dropout(p=0.1, inplace=False)
        (dropout3): Dropout(p=0.1, inplace=False)
      )
      (5): TransformerDecoderLayer(
        (self_attn): MultiheadAttention(
          (out_proj): NonDynamicallyQuantizableLinear(in_features=12, out_features=12, bias=True)
        )
        (multihead_attn): MultiheadAttention(
          (out_proj): NonDynamicallyQuantizableLinear(in_features=12, out_features=12, bias=True)
        )
        (linear1): Linear(in_features=12, out_features=2048, bias=True)
        (dropout): Dropout(p=0.1, inplace=False)
        (linear2): Linear(in_features=2048, out_features=12, bias=True)
        (norm1): LayerNorm((12,), eps=1e-05, elementwise_affine=True)
        (norm2): LayerNorm((12,), eps=1e-05, elementwise_affine=True)
        (norm3): LayerNorm((12,), eps=1e-05, elementwise_affine=True)
        (dropout1): Dropout(p=0.1, inplace=False)
        (dropout2): Dropout(p=0.1, inplace=False)
        (dropout3): Dropout(p=0.1, inplace=False)
      )
    )
    (norm): LayerNorm((12,), eps=1e-05, elementwise_affine=True)
  )
)
[[[… # 1
UPDATE CUSTOMER   SET C_BALANCE = $1,        C_YTD_PAYMENT = $2,        C_PAYMENT_CNT = $3,        C_DATA = $4  WHERE C_W_ID = $5    AND C_D_ID = $6    AND C_ID = $7
* 1
{'Node Type': 'ModifyTable', 'Operation': 'Update', 'Parallel Aware': False, 'Relation Name': 'customer', 'Alias': 'customer', 'Startup Cost': 0.43, 'Total Cost': 8.45, 'Pl
…
[0, 19.983213424682617, 0, 19.984155654907227, 19.985074996948242, 19.9854793548584, 19.98490333557129, 0, 19.983291625976562, 19.98550796508789, 0, 19.98178482055664, 19.98490333557129, 19.98500633239746, 0, 0, 19.985469818115234, 19.985347747802734, 0, 19.98533058166504, 0, 19.98611068725586, 19.98581886291504, 0, 19.98420524597168, 19.986164093017578, 19.984874725341797, 0, 19.984352111816406, 19.98600959777832, 19.98593521118164, 0, 0, 0, 0, 0, 0, 0, 0, 0, 0]
Transformer(
  (encoder): TransformerEncoder(
    (layers): ModuleList(
      (0): TransformerEncoderLayer(
        (self_attn): MultiheadAttention(
          (out_proj): NonDynamicallyQuantizableLinear(in_features=12, out_features=12, bias=True)
        )
        (linear1): Linear(in_features=12, out_features=2048, bias=True)
        (dropout): Dropout(p=0.1, inplace=False)
        (linear2): Linear(in_features=2048, out_features=12, bias=True)
        (norm1): LayerNorm((12,), eps=1e-05, elementwise_affine=True)
        (norm2): LayerNorm((12,), eps=1e-05, elementwise_affine=True)
        (dropout1): Dropout(p=0.1, inplace=False)
        (dropout2): Dropout(p=0.1, inplace=False)
      )
      (1): TransformerEncoderLayer(
        (self_attn): MultiheadAttention(
          (out_proj): NonDynamicallyQuantizableLinear(in_features=12, out_features=12, bias=True)
        )
        (linear1): Linear(in_features=12, out_features=2048, bias=True)
        (dropout): Dropout(p=0.1, inplace=False)
        (linear2): Linear(in_features=2048, out_features=12, bias=True)
        (norm1): LayerNorm((12,), eps=1e-05, elementwise_affine=True)
        (norm2): LayerNorm((12,), eps=1e-05, elementwise_affine=True)
        (dropout1): Dropout(p=0.1, inplace=False)
        (dropout2): Dropout(p=0.1, inplace=False)
      )
      (2): TransformerEncoderLayer(
        (self_attn): MultiheadAttention(
          (out_proj): NonDynamicallyQuantizableLinear(in_features=12, out_features=12, bias=True)
        )
        (linear1): Linear(in_features=12, out_features=2048, bias=True)
        (dropout): Dropout(p=0.1, inplace=False)
        (linear2): Linear(in_features=2048, out_features=12, bias=True)
        (norm1): LayerNorm((12,), eps=1e-05, elementwise_affine=True)
        (norm2): LayerNorm((12,), eps=1e-05, elementwise_affine=True)
        (dropout1): Dropout(p=0.1, inplace=False)
        (dropout2): Dropout(p=0.1, inplace=False)
      )
      (3): TransformerEncoderLayer(
        (self_attn): MultiheadAttention(
          (out_proj): NonDynamicallyQuantizableLinear(in_features=12, out_features=12, bias=True)
        )
        (linear1): Linear(in_features=12, out_features=2048, bias=True)
        (dropout): Dropout(p=0.1, inplace=False)
        (linear2): Linear(in_features=2048, out_features=12, bias=True)
        (norm1): LayerNorm((12,), eps=1e-05, elementwise_affine=True)
        (norm2): LayerNorm((12,), eps=1e-05, elementwise_affine=True)
        (dropout1): Dropout(p=0.1, inplace=False)
        (dropout2): Dropout(p=0.1, inplace=False)
      )
      (4): TransformerEncoderLayer(
        (self_attn): MultiheadAttention(
          (out_proj): NonDynamicallyQuantizableLinear(in_features=12, out_features=12, bias=True)
        )
        (linear1): Linear(in_features=12, out_features=2048, bias=True)
        (dropout): Dropout(p=0.1, inplace=False)
        (linear2): Linear(in_features=2048, out_features=12, bias=True)
        (norm1): LayerNorm((12,), eps=1e-05, elementwise_affine=True)
        (norm2): LayerNorm((12,), eps=1e-05, elementwise_affine=True)
        (dropout1): Dropout(p=0.1, inplace=False)
        (dropout2): Dropout(p=0.1, inplace=False)
      )
      (5): TransformerEncoderLayer(
        (self_attn): MultiheadAttention(
          (out_proj): NonDynamicallyQuantizableLinear(in_features=12, out_features=12, bias=True)
        )
        (linear1): Linear(in_features=12, out_features=2048, bias=True)
        (dropout): Dropout(p=0.1, inplace=False)
        (linear2): Linear(in_features=2048, out_features=12, bias=True)
        (norm1): LayerNorm((12,), eps=1e-05, elementwise_affine=True)
        (norm2): LayerNorm((12,), eps=1e-05, elementwise_affine=True)
        (dropout1): Dropout(p=0.1, inplace=False)
        (dropout2): Dropout(p=0.1, inplace=False)
      )
    )
    (norm): LayerNorm((12,), eps=1e-05, elementwise_affine=True)
  )
  (decoder): TransformerDecoder(
    (layers): ModuleList(
      (0): TransformerDecoderLayer(
        (self_attn): MultiheadAttention(
          (out_proj): NonDynamicallyQuantizableLinear(in_features=12, out_features=12, bias=True)
        )
        (multihead_attn): MultiheadAttention(
          (out_proj): NonDynamicallyQuantizableLinear(in_features=12, out_features=12, bias=True)
        )
        (linear1): Linear(in_features=12, out_features=2048, bias=True)
        (dropout): Dropout(p=0.1, inplace=False)
        (linear2): Linear(in_features=2048, out_features=12, bias=True)
        (norm1): LayerNorm((12,), eps=1e-05, elementwise_affine=True)
        (norm2): LayerNorm((12,), eps=1e-05, elementwise_affine=True)
        (norm3): LayerNorm((12,), eps=1e-05, elementwise_affine=True)
        (dropout1): Dropout(p=0.1, inplace=False)
        (dropout2): Dropout(p=0.1, inplace=False)
        (dropout3): Dropout(p=0.1, inplace=False)
      )
      (1): TransformerDecoderLayer(
        (self_attn): MultiheadAttention(
          (out_proj): NonDynamicallyQuantizableLinear(in_features=12, out_features=12, bias=True)
        )
        (multihead_attn): MultiheadAttention(
          (out_proj): NonDynamicallyQuantizableLinear(in_features=12, out_features=12, bias=True)
        )
        (linear1): Linear(in_features=12, out_features=2048, bias=True)
        (dropout): Dropout(p=0.1, inplace=False)
        (linear2): Linear(in_features=2048, out_features=12, bias=True)
        (norm1): LayerNorm((12,), eps=1e-05, elementwise_affine=True)
        (norm2): LayerNorm((12,), eps=1e-05, elementwise_affine=True)
        (norm3): LayerNorm((12,), eps=1e-05, elementwise_affine=True)
        (dropout1): Dropout(p=0.1, inplace=False)
        (dropout2): Dropout(p=0.1, inplace=False)
        (dropout3): Dropout(p=0.1, inplace=False)
      )
      (2): TransformerDecoderLayer(
        (self_attn): MultiheadAttention(
          (out_proj): NonDynamicallyQuantizableLinear(in_features=12, out_features=12, bias=True)
        )
        (multihead_attn): MultiheadAttention(
          (out_proj): NonDynamicallyQuantizableLinear(in_features=12, out_features=12, bias=True)
        )
        (linear1): Linear(in_features=12, out_features=2048, bias=True)
        (dropout): Dropout(p=0.1, inplace=False)
        (linear2): Linear(in_features=2048, out_features=12, bias=True)
        (norm1): LayerNorm((12,), eps=1e-05, elementwise_affine=True)
        (norm2): LayerNorm((12,), eps=1e-05, elementwise_affine=True)
        (norm3): LayerNorm((12,), eps=1e-05, elementwise_affine=True)
        (dropout1): Dropout(p=0.1, inplace=False)
        (dropout2): Dropout(p=0.1, inplace=False)
        (dropout3): Dropout(p=0.1, inplace=False)
      )
      (3): TransformerDecoderLayer(
        (self_attn): MultiheadAttention(
          (out_proj): NonDynamicallyQuantizableLinear(in_features=12, out_features=12, bias=True)
        )
        (multihead_attn): MultiheadAttention(
          (out_proj): NonDynamicallyQuantizableLinear(in_features=12, out_features=12, bias=True)
        )
        (linear1): Linear(in_features=12, out_features=2048, bias=True)
        (dropout): Dropout(p=0.1, inplace=False)
        (linear2): Linear(in_features=2048, out_features=12, bias=True)
        (norm1): LayerNorm((12,), eps=1e-05, elementwise_affine=True)
        (norm2): LayerNorm((12,), eps=1e-05, elementwise_affine=True)
        (norm3): LayerNorm((12,), eps=1e-05, elementwise_affine=True)
        (dropout1): Dropout(p=0.1, inplace=False)
        (dropout2): Dropout(p=0.1, inplace=False)
        (dropout3): Dropout(p=0.1, inplace=False)
      )
      (4): TransformerDecoderLayer(
        (self_attn): MultiheadAttention(
          (out_proj): NonDynamicallyQuantizableLinear(in_features=12, out_features=12, bias=True)
        )
        (multihead_attn): MultiheadAttention(
          (out_proj): NonDynamicallyQuantizableLinear(in_features=12, out_features=12, bias=True)
        )
        (linear1): Linear(in_features=12, out_features=2048, bias=True)
        (dropout): Dropout(p=0.1, inplace=False)
        (linear2): Linear(in_features=2048, out_features=12, bias=True)
        (norm1): LayerNorm((12,), eps=1e-05, elementwise_affine=True)
        (norm2): LayerNorm((12,), eps=1e-05, elementwise_affine=True)
        (norm3): LayerNorm((12,), eps=1e-05, elementwise_affine=True)
        (dropout1): Dropout(p=0.1, inplace=False)
        (dropout2): Dropout(p=0.1, inplace=False)
        (dropout3): Dropout(p=0.1, inplace=False)
      )
      (5): TransformerDecoderLayer(
        (self_attn): MultiheadAttention(
          (out_proj): NonDynamicallyQuantizableLinear(in_features=12, out_features=12, bias=True)
        )
        (multihead_attn): MultiheadAttention(
          (out_proj): NonDynamicallyQuantizableLinear(in_features=12, out_features=12, bias=True)
        )
        (linear1): Linear(in_features=12, out_features=2048, bias=True)
        (dropout): Dropout(p=0.1, inplace=False)
        (linear2): Linear(in_features=2048, out_features=12, bias=True)
        (norm1): LayerNorm((12,), eps=1e-05, elementwise_affine=True)
        (norm2): LayerNorm((12,), eps=1e-05, elementwise_affine=True)
        (norm3): LayerNorm((12,), eps=1e-05, elementwise_affine=True)
        (dropout1): Dropout(p=0.1, inplace=False)
        (dropout2): Dropout(p=0.1, inplace=False)
        (dropout3): Dropout(p=0.1, inplace=False)
      )
    )
    (norm): LayerNorm((12,), eps=1e-05, elementwise_affine=True)
  )
)
Transformer(
  (encoder): TransformerEncoder(
    (layers): ModuleList(
      (0): TransformerEncoderLayer(
        (self_attn): MultiheadAttention(
          (out_proj): NonDynamicallyQuantizableLinear(in_features=12, out_features=12, bias=True)
        )
        (linear1): Linear(in_features=12, out_features=2048, bias=True)
        (dropout): Dropout(p=0.1, inplace=False)
        (linear2): Linear(in_features=2048, out_features=12, bias=True)
        (norm1): LayerNorm((12,), eps=1e-05, elementwise_affine=True)
        (norm2): LayerNorm((12,), eps=1e-05, elementwise_affine=True)
        (dropout1): Dropout(p=0.1, inplace=False)
        (dropout2): Dropout(p=0.1, inplace=False)
      )
      (1): TransformerEncoderLayer(
        (self_attn): MultiheadAttention(
          (out_proj): NonDynamicallyQuantizableLinear(in_features=12, out_features=12, bias=True)
        )
        (linear1): Linear(in_features=12, out_features=2048, bias=True)
        (dropout): Dropout(p=0.1, inplace=False)
        (linear2): Linear(in_features=2048, out_features=12, bias=True)
        (norm1): LayerNorm((12,), eps=1e-05, elementwise_affine=True)
        (norm2): LayerNorm((12,), eps=1e-05, elementwise_affine=True)
        (dropout1): Dropout(p=0.1, inplace=False)
        (dropout2): Dropout(p=0.1, inplace=False)
      )
      (2): TransformerEncoderLayer(
        (self_attn): MultiheadAttention(
          (out_proj): NonDynamicallyQuantizableLinear(in_features=12, out_features=12, bias=True)
        )
        (linear1): Linear(in_features=12, out_features=2048, bias=True)
        (dropout): Dropout(p=0.1, inplace=False)
        (linear2): Linear(in_features=2048, out_features=12, bias=True)
        (norm1): LayerNorm((12,), eps=1e-05, elementwise_affine=True)
        (norm2): LayerNorm((12,), eps=1e-05, elementwise_affine=True)
        (dropout1): Dropout(p=0.1, inplace=False)
        (dropout2): Dropout(p=0.1, inplace=False)
      )
      (3): TransformerEncoderLayer(
        (self_attn): MultiheadAttention(
          (out_proj): NonDynamicallyQuantizableLinear(in_features=12, out_features=12, bias=True)
        )
        (linear1): Linear(in_features=12, out_features=2048, bias=True)
        (dropout): Dropout(p=0.1, inplace=False)
        (linear2): Linear(in_features=2048, out_features=12, bias=True)
        (norm1): LayerNorm((12,), eps=1e-05, elementwise_affine=True)
        (norm2): LayerNorm((12,), eps=1e-05, elementwise_affine=True)
        (dropout1): Dropout(p=0.1, inplace=False)
        (dropout2): Dropout(p=0.1, inplace=False)
      )
      (4): TransformerEncoderLayer(
        (self_attn): MultiheadAttention(
          (out_proj): NonDynamicallyQuantizableLinear(in_features=12, out_features=12, bias=True)
        )
        (linear1): Linear(in_features=12, out_features=2048, bias=True)
        (dropout): Dropout(p=0.1, inplace=False)
        (linear2): Linear(in_features=2048, out_features=12, bias=True)
        (norm1): LayerNorm((12,), eps=1e-05, elementwise_affine=True)
        (norm2): LayerNorm((12,), eps=1e-05, elementwise_affine=True)
        (dropout1): Dropout(p=0.1, inplace=False)
        (dropout2): Dropout(p=0.1, inplace=False)
      )
      (5): TransformerEncoderLayer(
        (self_attn): MultiheadAttention(
          (out_proj): NonDynamicallyQuantizableLinear(in_features=12, out_features=12, bias=True)
        )
        (linear1): Linear(in_features=12, out_features=2048, bias=True)
        (dropout): Dropout(p=0.1, inplace=False)
        (linear2): Linear(in_features=2048, out_features=12, bias=True)
        (norm1): LayerNorm((12,), eps=1e-05, elementwise_affine=True)
        (norm2): LayerNorm((12,), eps=1e-05, elementwise_affine=True)
        (dropout1): Dropout(p=0.1, inplace=False)
        (dropout2): Dropout(p=0.1, inplace=False)
      )
    )
    (norm): LayerNorm((12,), eps=1e-05, elementwise_affine=True)
  )
  (decoder): TransformerDecoder(
    (layers): ModuleList(
      (0): TransformerDecoderLayer(
        (self_attn): MultiheadAttention(
          (out_proj): NonDynamicallyQuantizableLinear(in_features=12, out_features=12, bias=True)
        )
        (multihead_attn): MultiheadAttention(
          (out_proj): NonDynamicallyQuantizableLinear(in_features=12, out_features=12, bias=True)
        )
        (linear1): Linear(in_features=12, out_features=2048, bias=True)
        (dropout): Dropout(p=0.1, inplace=False)
        (linear2): Linear(in_features=2048, out_features=12, bias=True)
        (norm1): LayerNorm((12,), eps=1e-05, elementwise_affine=True)
        (norm2): LayerNorm((12,), eps=1e-05, elementwise_affine=True)
        (norm3): LayerNorm((12,), eps=1e-05, elementwise_affine=True)
        (dropout1): Dropout(p=0.1, inplace=False)
        (dropout2): Dropout(p=0.1, inplace=False)
        (dropout3): Dropout(p=0.1, inplace=False)
      )
      (1): TransformerDecoderLayer(
        (self_attn): MultiheadAttention(
          (out_proj): NonDynamicallyQuantizableLinear(in_features=12, out_features=12, bias=True)
        )
        (multihead_attn): MultiheadAttention(
          (out_proj): NonDynamicallyQuantizableLinear(in_features=12, out_features=12, bias=True)
        )
        (linear1): Linear(in_features=12, out_features=2048, bias=True)
        (dropout): Dropout(p=0.1, inplace=False)
        (linear2): Linear(in_features=2048, out_features=12, bias=True)
        (norm1): LayerNorm((12,), eps=1e-05, elementwise_affine=True)
        (norm2): LayerNorm((12,), eps=1e-05, elementwise_affine=True)
        (norm3): LayerNorm((12,), eps=1e-05, elementwise_affine=True)
        (dropout1): Dropout(p=0.1, inplace=False)
        (dropout2): Dropout(p=0.1, inplace=False)
        (dropout3): Dropout(p=0.1, inplace=False)
      )
      (2): TransformerDecoderLayer(
        (self_attn): MultiheadAttention(
          (out_proj): NonDynamicallyQuantizableLinear(in_features=12, out_features=12, bias=True)
        )
        (multihead_attn): MultiheadAttention(
          (out_proj): NonDynamicallyQuantizableLinear(in_features=12, out_features=12, bias=True)
        )
        (linear1): Linear(in_features=12, out_features=2048, bias=True)
        (dropout): Dropout(p=0.1, inplace=False)
        (linear2): Linear(in_features=2048, out_features=12, bias=True)
        (norm1): LayerNorm((12,), eps=1e-05, elementwise_affine=True)
        (norm2): LayerNorm((12,), eps=1e-05, elementwise_affine=True)
        (norm3): LayerNorm((12,), eps=1e-05, elementwise_affine=True)
        (dropout1): Dropout(p=0.1, inplace=False)
        (dropout2): Dropout(p=0.1, inplace=False)
        (dropout3): Dropout(p=0.1, inplace=False)
      )
      (3): TransformerDecoderLayer(
        (self_attn): MultiheadAttention(
          (out_proj): NonDynamicallyQuantizableLinear(in_features=12, out_features=12, bias=True)
        )
        (multihead_attn): MultiheadAttention(
          (out_proj): NonDynamicallyQuantizableLinear(in_features=12, out_features=12, bias=True)
        )
        (linear1): Linear(in_features=12, out_features=2048, bias=True)
        (dropout): Dropout(p=0.1, inplace=False)
        (linear2): Linear(in_features=2048, out_features=12, bias=True)
        (norm1): LayerNorm((12,), eps=1e-05, elementwise_affine=True)
        (norm2): LayerNorm((12,), eps=1e-05, elementwise_affine=True)
        (norm3): LayerNorm((12,), eps=1e-05, elementwise_affine=True)
        (dropout1): Dropout(p=0.1, inplace=False)
        (dropout2): Dropout(p=0.1, inplace=False)
        (dropout3): Dropout(p=0.1, inplace=False)
      )
      (4): TransformerDecoderLayer(
        (self_attn): MultiheadAttention(
          (out_proj): NonDynamicallyQuantizableLinear(in_features=12, out_features=12, bias=True)
        )
        (multihead_attn): MultiheadAttention(
          (out_proj): NonDynamicallyQuantizableLinear(in_features=12, out_features=12, bias=True)
        )
        (linear1): Linear(in_features=12, out_features=2048, bias=True)
        (dropout): Dropout(p=0.1, inplace=False)
        (linear2): Linear(in_features=2048, out_features=12, bias=True)
        (norm1): LayerNorm((12,), eps=1e-05, elementwise_affine=True)
        (norm2): LayerNorm((12,), eps=1e-05, elementwise_affine=True)
        (norm3): LayerNorm((12,), eps=1e-05, elementwise_affine=True)
        (dropout1): Dropout(p=0.1, inplace=False)
        (dropout2): Dropout(p=0.1, inplace=False)
        (dropout3): Dropout(p=0.1, inplace=False)
      )
      (5): TransformerDecoderLayer(
        (self_attn): MultiheadAttention(
          (out_proj): NonDynamicallyQuantizableLinear(in_features=12, out_features=12, bias=True)
        )
        (multihead_attn): MultiheadAttention(
          (out_proj): NonDynamicallyQuantizableLinear(in_features=12, out_features=12, bias=True)
        )
        (linear1): Linear(in_features=12, out_features=2048, bias=True)
        (dropout): Dropout(p=0.1, inplace=False)
        (linear2): Linear(in_features=2048, out_features=12, bias=True)
        (norm1): LayerNorm((12,), eps=1e-05, elementwise_affine=True)
        (norm2): LayerNorm((12,), eps=1e-05, elementwise_affine=True)
        (norm3): LayerNorm((12,), eps=1e-05, elementwise_affine=True)
        (dropout1): Dropout(p=0.1, inplace=False)
        (dropout2): Dropout(p=0.1, inplace=False)
        (dropout3): Dropout(p=0.1, inplace=False)
      )
    )
    (norm): LayerNorm((12,), eps=1e-05, elementwise_affine=True)
  )
)
[[[… # 1
UPDATE CUSTOMER   SET C_BALANCE = $1,        C_YTD_PAYMENT = $2,        C_PAYMENT_CNT = $3,        C_DATA = $4  WHERE C_W_ID = $5    AND C_D_ID = $6    AND C_ID = $7
* 1
{'Node Type': 'ModifyTable', 'Operation': 'Update', 'Parallel Aware': False, 'Relation Name': 'customer', 'Alias': 'customer', 'Startup Cost': 0.43, 'Total Cost': 8.45, 'Pl
…
