train size: 668
test size: 223
[ 9.73479223 14.68693671 -5.23716441 -0.68317547 -0.1807337  -0.74149625
 -2.78108404  3.18298059 -1.45110767 -3.19411609]
1
before training
after training
XXMULT(
  (trans): Transformer(
    (encoder): TransformerEncoder(
      (layers): ModuleList(
        (0): TransformerEncoderLayer(
          (self_attn): MultiheadAttention(
            (out_proj): NonDynamicallyQuantizableLinear(in_features=12, out_features=12, bias=True)
          )
          (linear1): Linear(in_features=12, out_features=2048, bias=True)
          (dropout): Dropout(p=0.1, inplace=False)
          (linear2): Linear(in_features=2048, out_features=12, bias=True)
          (norm1): LayerNorm((12,), eps=1e-05, elementwise_affine=True)
          (norm2): LayerNorm((12,), eps=1e-05, elementwise_affine=True)
          (dropout1): Dropout(p=0.1, inplace=False)
          (dropout2): Dropout(p=0.1, inplace=False)
        )
        (1): TransformerEncoderLayer(
          (self_attn): MultiheadAttention(
            (out_proj): NonDynamicallyQuantizableLinear(in_features=12, out_features=12, bias=True)
          )
          (linear1): Linear(in_features=12, out_features=2048, bias=True)
          (dropout): Dropout(p=0.1, inplace=False)
          (linear2): Linear(in_features=2048, out_features=12, bias=True)
          (norm1): LayerNorm((12,), eps=1e-05, elementwise_affine=True)
          (norm2): LayerNorm((12,), eps=1e-05, elementwise_affine=True)
          (dropout1): Dropout(p=0.1, inplace=False)
          (dropout2): Dropout(p=0.1, inplace=False)
        )
        (2): TransformerEncoderLayer(
          (self_attn): MultiheadAttention(
            (out_proj): NonDynamicallyQuantizableLinear(in_features=12, out_features=12, bias=True)
          )
          (linear1): Linear(in_features=12, out_features=2048, bias=True)
          (dropout): Dropout(p=0.1, inplace=False)
          (linear2): Linear(in_features=2048, out_features=12, bias=True)
          (norm1): LayerNorm((12,), eps=1e-05, elementwise_affine=True)
          (norm2): LayerNorm((12,), eps=1e-05, elementwise_affine=True)
          (dropout1): Dropout(p=0.1, inplace=False)
          (dropout2): Dropout(p=0.1, inplace=False)
        )
        (3): TransformerEncoderLayer(
          (self_attn): MultiheadAttention(
            (out_proj): NonDynamicallyQuantizableLinear(in_features=12, out_features=12, bias=True)
          )
          (linear1): Linear(in_features=12, out_features=2048, bias=True)
          (dropout): Dropout(p=0.1, inplace=False)
          (linear2): Linear(in_features=2048, out_features=12, bias=True)
          (norm1): LayerNorm((12,), eps=1e-05, elementwise_affine=True)
          (norm2): LayerNorm((12,), eps=1e-05, elementwise_affine=True)
          (dropout1): Dropout(p=0.1, inplace=False)
          (dropout2): Dropout(p=0.1, inplace=False)
        )
        (4): TransformerEncoderLayer(
          (self_attn): MultiheadAttention(
            (out_proj): NonDynamicallyQuantizableLinear(in_features=12, out_features=12, bias=True)
          )
          (linear1): Linear(in_features=12, out_features=2048, bias=True)
          (dropout): Dropout(p=0.1, inplace=False)
          (linear2): Linear(in_features=2048, out_features=12, bias=True)
          (norm1): LayerNorm((12,), eps=1e-05, elementwise_affine=True)
          (norm2): LayerNorm((12,), eps=1e-05, elementwise_affine=True)
          (dropout1): Dropout(p=0.1, inplace=False)
          (dropout2): Dropout(p=0.1, inplace=False)
        )
        (5): TransformerEncoderLayer(
          (self_attn): MultiheadAttention(
            (out_proj): NonDynamicallyQuantizableLinear(in_features=12, out_features=12, bias=True)
          )
          (linear1): Linear(in_features=12, out_features=2048, bias=True)
          (dropout): Dropout(p=0.1, inplace=False)
          (linear2): Linear(in_features=2048, out_features=12, bias=True)
          (norm1): LayerNorm((12,), eps=1e-05, elementwise_affine=True)
          (norm2): LayerNorm((12,), eps=1e-05, elementwise_affine=True)
          (dropout1): Dropout(p=0.1, inplace=False)
          (dropout2): Dropout(p=0.1, inplace=False)
        )
      )
      (norm): LayerNorm((12,), eps=1e-05, elementwise_affine=True)
    )
    (decoder): TransformerDecoder(
      (layers): ModuleList(
        (0): TransformerDecoderLayer(
          (self_attn): MultiheadAttention(
            (out_proj): NonDynamicallyQuantizableLinear(in_features=12, out_features=12, bias=True)
          )
          (multihead_attn): MultiheadAttention(
            (out_proj): NonDynamicallyQuantizableLinear(in_features=12, out_features=12, bias=True)
          )
          (linear1): Linear(in_features=12, out_features=2048, bias=True)
          (dropout): Dropout(p=0.1, inplace=False)
          (linear2): Linear(in_features=2048, out_features=12, bias=True)
          (norm1): LayerNorm((12,), eps=1e-05, elementwise_affine=True)
          (norm2): LayerNorm((12,), eps=1e-05, elementwise_affine=True)
          (norm3): LayerNorm((12,), eps=1e-05, elementwise_affine=True)
          (dropout1): Dropout(p=0.1, inplace=False)
          (dropout2): Dropout(p=0.1, inplace=False)
          (dropout3): Dropout(p=0.1, inplace=False)
        )
        (1): TransformerDecoderLayer(
          (self_attn): MultiheadAttention(
            (out_proj): NonDynamicallyQuantizableLinear(in_features=12, out_features=12, bias=True)
          )
          (multihead_attn): MultiheadAttention(
            (out_proj): NonDynamicallyQuantizableLinear(in_features=12, out_features=12, bias=True)
          )
          (linear1): Linear(in_features=12, out_features=2048, bias=True)
          (dropout): Dropout(p=0.1, inplace=False)
          (linear2): Linear(in_features=2048, out_features=12, bias=True)
          (norm1): LayerNorm((12,), eps=1e-05, elementwise_affine=True)
          (norm2): LayerNorm((12,), eps=1e-05, elementwise_affine=True)
          (norm3): LayerNorm((12,), eps=1e-05, elementwise_affine=True)
          (dropout1): Dropout(p=0.1, inplace=False)
          (dropout2): Dropout(p=0.1, inplace=False)
          (dropout3): Dropout(p=0.1, inplace=False)
        )
        (2): TransformerDecoderLayer(
          (self_attn): MultiheadAttention(
            (out_proj): NonDynamicallyQuantizableLinear(in_features=12, out_features=12, bias=True)
          )
          (multihead_attn): MultiheadAttention(
            (out_proj): NonDynamicallyQuantizableLinear(in_features=12, out_features=12, bias=True)
          )
          (linear1): Linear(in_features=12, out_features=2048, bias=True)
          (dropout): Dropout(p=0.1, inplace=False)
          (linear2): Linear(in_features=2048, out_features=12, bias=True)
          (norm1): LayerNorm((12,), eps=1e-05, elementwise_affine=True)
          (norm2): LayerNorm((12,), eps=1e-05, elementwise_affine=True)
          (norm3): LayerNorm((12,), eps=1e-05, elementwise_affine=True)
          (dropout1): Dropout(p=0.1, inplace=False)
          (dropout2): Dropout(p=0.1, inplace=False)
          (dropout3): Dropout(p=0.1, inplace=False)
        )
        (3): TransformerDecoderLayer(
          (self_attn): MultiheadAttention(
            (out_proj): NonDynamicallyQuantizableLinear(in_features=12, out_features=12, bias=True)
          )
          (multihead_attn): MultiheadAttention(
            (out_proj): NonDynamicallyQuantizableLinear(in_features=12, out_features=12, bias=True)
          )
          (linear1): Linear(in_features=12, out_features=2048, bias=True)
          (dropout): Dropout(p=0.1, inplace=False)
          (linear2): Linear(in_features=2048, out_features=12, bias=True)
          (norm1): LayerNorm((12,), eps=1e-05, elementwise_affine=True)
          (norm2): LayerNorm((12,), eps=1e-05, elementwise_affine=True)
          (norm3): LayerNorm((12,), eps=1e-05, elementwise_affine=True)
          (dropout1): Dropout(p=0.1, inplace=False)
          (dropout2): Dropout(p=0.1, inplace=False)
          (dropout3): Dropout(p=0.1, inplace=False)
        )
        (4): TransformerDecoderLayer(
          (self_attn): MultiheadAttention(
            (out_proj): NonDynamicallyQuantizableLinear(in_features=12, out_features=12, bias=True)
          )
          (multihead_attn): MultiheadAttention(
            (out_proj): NonDynamicallyQuantizableLinear(in_features=12, out_features=12, bias=True)
          )
          (linear1): Linear(in_features=12, out_features=2048, bias=True)
          (dropout): Dropout(p=0.1, inplace=False)
          (linear2): Linear(in_features=2048, out_features=12, bias=True)
          (norm1): LayerNorm((12,), eps=1e-05, elementwise_affine=True)
          (norm2): LayerNorm((12,), eps=1e-05, elementwise_affine=True)
          (norm3): LayerNorm((12,), eps=1e-05, elementwise_affine=True)
          (dropout1): Dropout(p=0.1, inplace=False)
          (dropout2): Dropout(p=0.1, inplace=False)
          (dropout3): Dropout(p=0.1, inplace=False)
        )
        (5): TransformerDecoderLayer(
          (self_attn): MultiheadAttention(
            (out_proj): NonDynamicallyQuantizableLinear(in_features=12, out_features=12, bias=True)
          )
          (multihead_attn): MultiheadAttention(
            (out_proj): NonDynamicallyQuantizableLinear(in_features=12, out_features=12, bias=True)
          )
          (linear1): Linear(in_features=12, out_features=2048, bias=True)
          (dropout): Dropout(p=0.1, inplace=False)
          (linear2): Linear(in_features=2048, out_features=12, bias=True)
          (norm1): LayerNorm((12,), eps=1e-05, elementwise_affine=True)
          (norm2): LayerNorm((12,), eps=1e-05, elementwise_affine=True)
          (norm3): LayerNorm((12,), eps=1e-05, elementwise_affine=True)
          (dropout1): Dropout(p=0.1, inplace=False)
          (dropout2): Dropout(p=0.1, inplace=False)
          (dropout3): Dropout(p=0.1, inplace=False)
        )
      )
      (norm): LayerNorm((12,), eps=1e-05, elementwise_affine=True)
    )
  )
  (transfc): Linear(in_features=48, out_features=64, bias=True)
  (fc1): Linear(in_features=64, out_features=64, bias=True)
  (fc2): Linear(in_features=64, out_features=10, bias=True)
)
loaded
igs:
[0, … 0, 0, 0, 0, 0, 0, 0, 0, 0]
igs:
[0, 3.1453857421875, 0, 3.145534038543701, 3.145678997039795, 3.145742416381836, 3.1456518173217773, 0, 3.1453981399536133, 3.145746946334839, 0, 3.1451611518859863, 3.1456518173217773, 3.1456680297851562, 0, 0, 3.1457412242889404, 3.145721673965454, 0, 3.145719051361084, 0, 3.1458420753479004, 3.145796060562134, 0, 3.1455421447753906, 3.14585018157959, 3.1456472873687744, 0, 3.1455650329589844, 3.1458258628845215, 3.1458141803741455, 0, 0, 0, 0, 0, 0, 0, 0, 0, 0]
…
