64
train size: 1202
test size: 404
[-0.7238466  -0.01983619  1.53904999 -1.55488387 -0.19532506 -1.41822971
 -1.29141456  1.30542993 -1.55901314 -1.30479506]
1
before training
after training
XXMULT(
  (trans): Transformer(
    (encoder): TransformerEncoder(
      (layers): ModuleList(
        (0): TransformerEncoderLayer(
          (self_attn): MultiheadAttention(
            (out_proj): NonDynamicallyQuantizableLinear(in_features=15, out_features=15, bias=True)
          )
          (linear1): Linear(in_features=15, out_features=2048, bias=True)
          (dropout): Dropout(p=0.1, inplace=False)
          (linear2): Linear(in_features=2048, out_features=15, bias=True)
          (norm1): LayerNorm((15,), eps=1e-05, elementwise_affine=True)
          (norm2): LayerNorm((15,), eps=1e-05, elementwise_affine=True)
          (dropout1): Dropout(p=0.1, inplace=False)
          (dropout2): Dropout(p=0.1, inplace=False)
        )
        (1): TransformerEncoderLayer(
          (self_attn): MultiheadAttention(
            (out_proj): NonDynamicallyQuantizableLinear(in_features=15, out_features=15, bias=True)
          )
          (linear1): Linear(in_features=15, out_features=2048, bias=True)
          (dropout): Dropout(p=0.1, inplace=False)
          (linear2): Linear(in_features=2048, out_features=15, bias=True)
          (norm1): LayerNorm((15,), eps=1e-05, elementwise_affine=True)
          (norm2): LayerNorm((15,), eps=1e-05, elementwise_affine=True)
          (dropout1): Dropout(p=0.1, inplace=False)
          (dropout2): Dropout(p=0.1, inplace=False)
        )
        (2): TransformerEncoderLayer(
          (self_attn): MultiheadAttention(
            (out_proj): NonDynamicallyQuantizableLinear(in_features=15, out_features=15, bias=True)
          )
          (linear1): Linear(in_features=15, out_features=2048, bias=True)
          (dropout): Dropout(p=0.1, inplace=False)
          (linear2): Linear(in_features=2048, out_features=15, bias=True)
          (norm1): LayerNorm((15,), eps=1e-05, elementwise_affine=True)
          (norm2): LayerNorm((15,), eps=1e-05, elementwise_affine=True)
          (dropout1): Dropout(p=0.1, inplace=False)
          (dropout2): Dropout(p=0.1, inplace=False)
        )
        (3): TransformerEncoderLayer(
          (self_attn): MultiheadAttention(
            (out_proj): NonDynamicallyQuantizableLinear(in_features=15, out_features=15, bias=True)
          )
          (linear1): Linear(in_features=15, out_features=2048, bias=True)
          (dropout): Dropout(p=0.1, inplace=False)
          (linear2): Linear(in_features=2048, out_features=15, bias=True)
          (norm1): LayerNorm((15,), eps=1e-05, elementwise_affine=True)
          (norm2): LayerNorm((15,), eps=1e-05, elementwise_affine=True)
          (dropout1): Dropout(p=0.1, inplace=False)
          (dropout2): Dropout(p=0.1, inplace=False)
        )
        (4): TransformerEncoderLayer(
          (self_attn): MultiheadAttention(
            (out_proj): NonDynamicallyQuantizableLinear(in_features=15, out_features=15, bias=True)
          )
          (linear1): Linear(in_features=15, out_features=2048, bias=True)
          (dropout): Dropout(p=0.1, inplace=False)
          (linear2): Linear(in_features=2048, out_features=15, bias=True)
          (norm1): LayerNorm((15,), eps=1e-05, elementwise_affine=True)
          (norm2): LayerNorm((15,), eps=1e-05, elementwise_affine=True)
          (dropout1): Dropout(p=0.1, inplace=False)
          (dropout2): Dropout(p=0.1, inplace=False)
        )
        (5): TransformerEncoderLayer(
          (self_attn): MultiheadAttention(
            (out_proj): NonDynamicallyQuantizableLinear(in_features=15, out_features=15, bias=True)
          )
          (linear1): Linear(in_features=15, out_features=2048, bias=True)
          (dropout): Dropout(p=0.1, inplace=False)
          (linear2): Linear(in_features=2048, out_features=15, bias=True)
          (norm1): LayerNorm((15,), eps=1e-05, elementwise_affine=True)
          (norm2): LayerNorm((15,), eps=1e-05, elementwise_affine=True)
          (dropout1): Dropout(p=0.1, inplace=False)
          (dropout2): Dropout(p=0.1, inplace=False)
        )
      )
      (norm): LayerNorm((15,), eps=1e-05, elementwise_affine=True)
    )
    (decoder): TransformerDecoder(
      (layers): ModuleList(
        (0): TransformerDecoderLayer(
          (self_attn): MultiheadAttention(
            (out_proj): NonDynamicallyQuantizableLinear(in_features=15, out_features=15, bias=True)
          )
          (multihead_attn): MultiheadAttention(
            (out_proj): NonDynamicallyQuantizableLinear(in_features=15, out_features=15, bias=True)
          )
          (linear1): Linear(in_features=15, out_features=2048, bias=True)
          (dropout): Dropout(p=0.1, inplace=False)
          (linear2): Linear(in_features=2048, out_features=15, bias=True)
          (norm1): LayerNorm((15,), eps=1e-05, elementwise_affine=True)
          (norm2): LayerNorm((15,), eps=1e-05, elementwise_affine=True)
          (norm3): LayerNorm((15,), eps=1e-05, elementwise_affine=True)
          (dropout1): Dropout(p=0.1, inplace=False)
          (dropout2): Dropout(p=0.1, inplace=False)
          (dropout3): Dropout(p=0.1, inplace=False)
        )
        (1): TransformerDecoderLayer(
          (self_attn): MultiheadAttention(
            (out_proj): NonDynamicallyQuantizableLinear(in_features=15, out_features=15, bias=True)
          )
          (multihead_attn): MultiheadAttention(
            (out_proj): NonDynamicallyQuantizableLinear(in_features=15, out_features=15, bias=True)
          )
          (linear1): Linear(in_features=15, out_features=2048, bias=True)
          (dropout): Dropout(p=0.1, inplace=False)
          (linear2): Linear(in_features=2048, out_features=15, bias=True)
          (norm1): LayerNorm((15,), eps=1e-05, elementwise_affine=True)
          (norm2): LayerNorm((15,), eps=1e-05, elementwise_affine=True)
          (norm3): LayerNorm((15,), eps=1e-05, elementwise_affine=True)
          (dropout1): Dropout(p=0.1, inplace=False)
          (dropout2): Dropout(p=0.1, inplace=False)
          (dropout3): Dropout(p=0.1, inplace=False)
        )
        (2): TransformerDecoderLayer(
          (self_attn): MultiheadAttention(
            (out_proj): NonDynamicallyQuantizableLinear(in_features=15, out_features=15, bias=True)
          )
          (multihead_attn): MultiheadAttention(
            (out_proj): NonDynamicallyQuantizableLinear(in_features=15, out_features=15, bias=True)
          )
          (linear1): Linear(in_features=15, out_features=2048, bias=True)
          (dropout): Dropout(p=0.1, inplace=False)
          (linear2): Linear(in_features=2048, out_features=15, bias=True)
          (norm1): LayerNorm((15,), eps=1e-05, elementwise_affine=True)
          (norm2): LayerNorm((15,), eps=1e-05, elementwise_affine=True)
          (norm3): LayerNorm((15,), eps=1e-05, elementwise_affine=True)
          (dropout1): Dropout(p=0.1, inplace=False)
          (dropout2): Dropout(p=0.1, inplace=False)
          (dropout3): Dropout(p=0.1, inplace=False)
        )
        (3): TransformerDecoderLayer(
          (self_attn): MultiheadAttention(
            (out_proj): NonDynamicallyQuantizableLinear(in_features=15, out_features=15, bias=True)
          )
          (multihead_attn): MultiheadAttention(
            (out_proj): NonDynamicallyQuantizableLinear(in_features=15, out_features=15, bias=True)
          )
          (linear1): Linear(in_features=15, out_features=2048, bias=True)
          (dropout): Dropout(p=0.1, inplace=False)
          (linear2): Linear(in_features=2048, out_features=15, bias=True)
          (norm1): LayerNorm((15,), eps=1e-05, elementwise_affine=True)
          (norm2): LayerNorm((15,), eps=1e-05, elementwise_affine=True)
          (norm3): LayerNorm((15,), eps=1e-05, elementwise_affine=True)
          (dropout1): Dropout(p=0.1, inplace=False)
          (dropout2): Dropout(p=0.1, inplace=False)
          (dropout3): Dropout(p=0.1, inplace=False)
        )
        (4): TransformerDecoderLayer(
          (self_attn): MultiheadAttention(
            (out_proj): NonDynamicallyQuantizableLinear(in_features=15, out_features=15, bias=True)
          )
          (multihead_attn): MultiheadAttention(
            (out_proj): NonDynamicallyQuantizableLinear(in_features=15, out_features=15, bias=True)
          )
          (linear1): Linear(in_features=15, out_features=2048, bias=True)
          (dropout): Dropout(p=0.1, inplace=False)
          (linear2): Linear(in_features=2048, out_features=15, bias=True)
          (norm1): LayerNorm((15,), eps=1e-05, elementwise_affine=True)
          (norm2): LayerNorm((15,), eps=1e-05, elementwise_affine=True)
          (norm3): LayerNorm((15,), eps=1e-05, elementwise_affine=True)
          (dropout1): Dropout(p=0.1, inplace=False)
          (dropout2): Dropout(p=0.1, inplace=False)
          (dropout3): Dropout(p=0.1, inplace=False)
        )
        (5): TransformerDecoderLayer(
          (self_attn): MultiheadAttention(
            (out_proj): NonDynamicallyQuantizableLinear(in_features=15, out_features=15, bias=True)
          )
          (multihead_attn): MultiheadAttention(
            (out_proj): NonDynamicallyQuantizableLinear(in_features=15, out_features=15, bias=True)
          )
          (linear1): Linear(in_features=15, out_features=2048, bias=True)
          (dropout): Dropout(p=0.1, inplace=False)
          (linear2): Linear(in_features=2048, out_features=15, bias=True)
          (norm1): LayerNorm((15,), eps=1e-05, elementwise_affine=True)
          (norm2): LayerNorm((15,), eps=1e-05, elementwise_affine=True)
          (norm3): LayerNorm((15,), eps=1e-05, elementwise_affine=True)
          (dropout1): Dropout(p=0.1, inplace=False)
          (dropout2): Dropout(p=0.1, inplace=False)
          (dropout3): Dropout(p=0.1, inplace=False)
        )
      )
      (norm): LayerNorm((15,), eps=1e-05, elementwise_affine=True)
    )
  )
  (transfc): Linear(in_features=75, out_features=64, bias=True)
  (fc1): Linear(in_features=64, out_features=64, bias=True)
  (fc2): Linear(in_features=64, out_features=10, bias=True)
)
loaded
igs:
[6.117406845092773, 6.0879411697387695, 6.109622478485107, 6.134349822998047, 6.087607383728027, 6.097738265991211, 6.109609603881836, 6.088016986846924, 6.074738502502441, 6.1094489097595215, 0, 0, 6.083118915557861, 0, 6.073484897613525, 6.079902648925781, 6.1098713874816895, 0, 0, 6.082352638244629, 0, 0, 0, 0, 6.102663516998291, 6.08284330368042, 0, 0, 0, 6.0731353759765625, 6.084140300750732, 6.888460159301758, 6.736775875091553, 0, 0, 0, 0, 0, 0, 0, 0, 0, 0, 0, 0, 0, 0, 0, 0, 0, 0, 0, 0, 0, 0]
…
